Assets/ML-Agents/Models/MoveToGoal 1.onnx (onnx, 72851 bytes, 7 tensors)

network_body._body_endoder.seq_layers.0.weight f4 [128, 6]
000000 16 df cf 3d c3 f7 d8 be 6d be f0 3d ef d6 b0 3d
       0.10149972 -0.42376527 0.11755071 0.08634745
000010 0e 53 89 be 5d ea 8b be 73 a5 be be 1f 3f 9e 3e
       -0.26821178 -0.27327242 -0.37235603 0.30907533
000020 b5 a8 a0 bc 13 70 c3 3e 62 eb e9 bc 63 10 d3 3e
       -0.019611696 0.38171443 -0.028554622 0.4122344
000030 48 80 c9 3e 25 37 22 3f 33 3e c2 be d6 4d c0 bc
       0.39355683 0.63365394 -0.3793808 -0.023474615
000040 60 6d 3c be bd b3 66 3e 3d 61 eb bd e1 e4 f7 be
       -0.18401098 0.22529502 -0.11493156 -0.48416808
000050 b1 83 82 be 5c 64 97 bc ba 5b ad 3d 74 79 ff be
       -0.25491098 -0.018480472 0.08464761 -0.4989735
000060 59 6f a9 be 63 7a 9b be 51 6c 04 bf e1 47 a8 bd
       -0.33092764 -0.3036681 -0.5172778 -0.08216835
000070 6f 08 18 bf 88 a9 b8 be 54 20 dc bd af 4a 58 be
       -0.5938787 -0.36066842 -0.107483536 -0.2112224
000080 a6 68 c8 3e 00 e1 68 3c 68 55 ac bd af 8f 19 be
       0.3914234 0.0142138 -0.084147274 -0.14996217
000090 f4 9e 06 bf 9a 84 8c 3e 6b 68 d0 3b 5b 3a 3a be
       -0.52586293 0.27444917 0.006360104 -0.18186323
0000a0 95 2f 0f bf 8b 27 60 3e ae 68 87 3e 99 64 3f be
       -0.5593198 0.21890084 0.26447052 -0.18690719
0000b0 89 e5 e6 bc c7 6a 70 bc 06 fb 38 be 6b 22 2e 3e
       -0.028185623 -0.014673895 -0.18064508 0.17005317
0000c0 86 05 0a 3e 30 e5 8f 3e aa 08 ce 3e 62 8b 13 3e
       0.1347867 0.28104544 0.40240985 0.14408639
0000d0 23 24 18 be 20 b1 1a 3f eb 1d 3e be 5b db 95 3e
       -0.14857535 0.6042652 -0.185661 0.29268917
0000e0 7d 01 88 bf 76 14 c4 3e 09 f0 ad 3e 38 93 a9 be
       -1.0625454 0.3829686 0.33972195 -0.33120131
0000f0 52 5c 4b 3e a1 51 35 bf d4 02 16 3e b5 f5 14 be
       0.19859436 -0.7082768 0.14649516 -0.14546855
000100 5c 7c 94 3e a7 69 17 be ab 12 0a 3e 81 24 8c 3e
       0.2900113 -0.14786397 0.13483684 0.273716
000110 ba 21 08 3f 9f 44 34 bd 7e 6c 84 be 3f 6b 38 3f
       0.5317646 -0.044010755 -0.25864023 0.72038645
000120 8a 6b 85 3e 1e 43 12 3f 32 76 e8 3e 6a 04 89 bf
       0.26058608 0.5713366 0.45402676 -1.0704472
000130 59 5e 9b be 42 ef 83 3e 64 3f 90 3e 97 1b 96 3d
       -0.3034542 0.25768477 0.28173363 0.07329481
000140 1d 39 45 3e 85 61 5e 3e 25 ae 2d 3f 85 b4 0a bf
       0.19260068 0.21716888 0.6784385 -0.541817
000150 0d 58 ba bc be a6 06 be 1e 2b c7 be 29 a6 eb be
       -0.022747064 -0.13149545 -0.38900083 -0.46025208
000160 10 d2 27 be 07 d1 08 bd b5 f9 01 bf 92 dc eb bd
       -0.16388726 -0.03340247 -0.5077165 -0.1151668
000170 b9 44 74 be 27 46 da 3d 10 f7 bd 3e 64 6f 03 bf
       -0.2385434 0.10657912 0.37102556 -0.51341844
000180 4f 93 ef 3d 27 ae be 3e 7c 10 8d be 38 8a 92 3e
       0.11698019 0.37242243 -0.2755164 0.28621078
000190 33 12 c4 3e 3c 57 c7 be 8a 00 ba 3e f4 f6 1a 3f
       0.38295135 -0.38933742 0.36328536 0.6053307
0001a0 ae 48 f5 bc e8 66 c0 3e bf f3 00 3f 73 7a c8 be
       -0.029941883 0.3757851 0.5037193 -0.3915592
0001b0 b9 a6 fa bc cf 64 5a 3f 88 1c 26 bf 7e 5e 09 3e
       -0.030597078 0.8531007 -0.64887285 0.13414952
0001c0 54 4a 90 3e df 35 82 be 44 40 1d 3f 11 25 0b bf
       0.28181708 -0.25431725 0.61426187 -0.54353434
0001d0 ef ef c2 bd e6 a6 bc 3e 9a 71 04 bc c1 40 f3 3e
       -0.0951842 0.36846083 -0.008083725 0.4751034
0001e0 95 4b 2e be 7a 08 86 3e b4 22 2b 3f 1d a2 46 3d
       -0.1702102 0.26178342 0.6684983 0.048494447
0001f0 be b4 f1 3e aa 5b 8a 3e 91 c0 e5 3e c0 57 8d 3d
       0.47208208 0.2702306 0.4487348 0.069015026
000200 93 0b d4 be 4b 6f ba be 16 b2 5b be 03 51 fb 3d
       -0.4141508 -0.36413035 -0.21454653 0.12271311
000210 d3 7a 6c 3f dd 05 ab be ce b0 26 be 23 eb de be
       0.92374915 -0.3340291 -0.16278383 -0.4353877
000220 d5 2d 4e 3e 07 18 4e bf e3 bf 99 be 02 51 f6 3d
       0.20134671 -0.8050541 -0.3002921 0.1202717
000230 47 d6 35 3d cb bb 14 3f dc d7 04 3f b3 b2 1e 3f
       0.044393804 0.5809905 0.51891875 0.61991423
000240 0f f9 bf 3d c9 4a a7 3e cb 4d 0f 3f cb d4 59 3e
       0.09373676 0.32674244 0.5597808 0.2127258
000250 f8 39 b9 bf 6a ac 46 3d b0 d0 2a 3f 3f 12 e2 3d
       -1.4470816 0.04850427 0.6672468 0.110386364
000260 be 67 28 bd 36 37 9e 3f ec 66 9f 3e 09 03 02 3e
       -0.04111456 1.2360599 0.3113321 0.1269647
000270 3f b2 24 3f e9 d1 a9 be f7 d7 d2 be ed 7c 6b be
       0.6433448 -0.3316796 -0.41180393 -0.22996874
000280 2e 7e 99 3e a4 05 5b 3e b7 0b 84 3e cb bc 06 bf
       0.2997908 0.2138887 0.25790188 -0.52631825
000290 b5 0d f7 bd c6 80 a5 be 3b 06 f8 3c 2f 71 b6 3e
       -0.12063161 -0.3232481 0.030276408 0.35633227
0002a0 ed 50 23 3f 7f a2 c5 3d 3d 80 c9 3e c9 64 0f be
       0.6379536 0.09650134 0.3935565 -0.1400329
0002b0 27 5c 4f 3f fb 27 19 be 63 0a e8 be ea 76 d7 be
       0.8099999 -0.14956658 -0.45320424 -0.42082912
0002c0 43 9c 7b be f8 8d 42 3e 22 d3 21 be c5 9b eb be
       -0.24571328 0.1899947 -0.15803197 -0.4601728
0002d0 95 ec 27 3e de 75 9a 3d 5e ce 16 3f 11 c9 17 3d
       0.16398843 0.07542013 0.5890864 0.037056986
0002e0 2c 5e 51 3f 03 71 10 3e 3b 97 6d 3e e4 cf 58 3e
       0.8178432 0.1410561 0.23202221 0.21173054
0002f0 51 78 6d be c5 90 11 bf 2d a0 b4 3e 09 8f 93 be
       -0.23190428 -0.56861526 0.35278454 -0.28820065
000300 7e cb 7b 3e 49 0f 84 bc a6 d1 c5 be b1 59 28 3e
       0.24589345 -0.01612057 -0.38636512 0.16440465
000310 bf 31 b0 3e ed 7e 11 be 8a fb 0f 3d ac df dd be
       0.34412953 -0.14208575 0.035151996 -0.4333471
000320 1b 86 e3 3e 84 41 b8 be b3 e0 da bd 37 28 ea 3e
       0.44438252 -0.35987484 -0.10687389 0.45733806
000330 78 2d 1a bd 7d 50 fa be ee 10 86 be 3e 12 65 3e
       -0.03764102 -0.48889533 -0.2618479 0.2237024
000340 41 f2 1d 3f 51 c1 6e ba be 89 92 bd 38 ab 16 3f
       0.61697775 -0.0009107786 -0.071551785 0.5885501
000350 a7 2f 94 be 47 1f 0a 3f cc 9f 35 bf ce b5 97 bf
       -0.28942606 0.53953975 -0.70946956 -1.1852357
000360 f7 d7 cb 3e f6 48 13 bf a3 a8 d1 3e 68 9f 8e 3d
       0.39813206 -0.57533205 0.40948972 0.06963998
000370 8c b4 82 3e cc 32 d8 3e 73 b9 23 bf 9b cb 69 3e
       0.2552837 0.42226255 -0.6395485 0.22831576
000380 1d e8 bf be 4c 06 fe 3a bb b7 06 bf 64 08 35 ba
       -0.37481776 0.0019380539 -0.526241 -0.00069058524
000390 36 98 2c be b6 ec 1a be 40 a9 03 bf 61 c8 82 3e
       -0.16854939 -0.1512936 -0.5143013 0.25543502
0003a0 b9 72 a8 3e 89 66 65 be 36 01 0a 3e ba c1 4d 3e
       0.32900026 -0.22402395 0.13477024 0.20093432
0003b0 a9 ef 80 bc cd 22 d8 3e c7 b9 fd bd 93 1d 9c 3e
       -0.015739279 0.4221405 -0.1238895 0.30491313
0003c0 da b4 d2 bd 9e ea 8c bd 0c 0d 02 bf 64 2a ae be
       -0.10288401 -0.06880687 -0.5080116 -0.34016716
0003d0 72 df cc 3e 11 46 98 3e 2d 1c fb 3e c3 bb 2a 3e
       0.40014225 0.29740956 0.49044934 0.16673188
0003e0 03 ce f6 3e b1 76 25 3f 82 ca 0d be 2a 77 44 be
       0.4820405 0.64634234 -0.13846782 -0.19186082
0003f0 58 4c 80 bf b7 f2 5f 3e b0 b6 cc be ce 4b a3 3d
       -1.0023298 0.21869932 -0.3998313 0.07973443

network_body._body_endoder.seq_layers.0.bias f4 [128]
000000 c6 f2 b8 3c 86 d1 21 bc c4 b7 a2 3c 25 41 34 3c
       0.0225767 -0.009876614 0.019863017 0.01100186
000010 31 90 27 bb 15 1b ea 3c a2 3f 8b bc 54 15 9d bb
       -0.0025568123 0.028577367 -0.016998116 -0.0047938023
000020 8f 34 02 3c 5d b4 8a 3b 0d ca 38 3c 1c b8 33 3c
       0.007947101 0.0042329268 0.011278641 0.010969188
000030 4d c0 09 3b c2 90 05 bc 27 2e 0a bb ab 7b 43 bc
       0.0021019161 -0.008152189 -0.0021084638 -0.01193134
000040 c1 60 30 bc b2 5e d5 bb f8 fc c6 3b ae 2f e6 ba
       -0.010765255 -0.0065115327 0.0060726367 -0.0017561817
000050 82 82 9b bc 8a 1a 97 bc 23 2b 0b bc b6 4d 22 bc
       -0.01898313 -0.018445272 -0.008494171 -0.009906223
000060 6e 92 8e 3c d2 32 95 3c ba 15 4f 3c b8 0a 8a 3c
       0.017403807 0.01821271 0.012639457 0.016850814
000070 c8 bc ac bc b9 46 b3 3b e7 af 80 3c e7 0c a4 3c
       -0.021086112 0.0054710773 0.015708877 0.020025684
000080 94 bc 90 3b 29 83 9a 3b 8b 95 b6 3c ed b7 d2 bb
       0.0044170115 0.0047153425 0.022288105 -0.006430617
000090 eb 6e db ba 10 77 2e 3c 1f 20 ba bc c1 62 84 bc
       -0.001674143 0.010648504 -0.022720395 -0.01616037
0000a0 78 40 9c 3c 41 85 41 3c b0 4d 90 bc 6c be 82 3a
       0.01907371 0.011811555 -0.01761517 0.0009974963
0000b0 55 32 9c 3b 3d b3 4a 3c ca a5 34 3b 3c 8c 9c 3c
       0.0047667422 0.012371835 0.0027564638 0.019109838
0000c0 31 e0 d2 3c 28 bc cf 3c 9f cb 69 bc c5 41 59 3b
       0.025741668 0.025358275 -0.014269738 0.0033150774
0000d0 60 72 ae bc 3e 5b 69 3c e2 ef 69 3b 97 de 9f 3b
       -0.021294773 0.014242945 0.003569596 0.0048788297
0000e0 66 bd e0 bc e2 7b 80 bc ea f7 ef 3b 61 d3 d3 bc
       -0.027434062 -0.015684072 0.007323255 -0.02585763
0000f0 6f 26 6b 3c 89 77 ad 3b b3 d6 64 3d f4 35 85 bc
       0.014352425 0.0052937907 0.055868816 -0.016261078
000100 49 79 3d bc fc 0e 08 bc a6 a9 89 3b 9f 64 7a bc
       -0.011564561 -0.008304354 0.004201132 -0.015282779
000110 95 1c 97 bb 84 ef 1c 3d 6a 24 f6 bc c3 4c 77 3c
       -0.0046115615 0.038314357 -0.03004666 0.015093985
000120 00 70 63 3b 97 9f c1 3c cd c6 0f bc d9 05 01 3b
       0.0034704208 0.023635669 -0.008775425 0.0019687323
000130 b3 c3 0e 3b c2 7b 9b ba 38 7d 2d 3c c1 6c 07 bb
       0.0021784126 -0.0011862444 0.0105889365 -0.0020664188
000140 00 5e 15 3d 1f a9 47 bc aa 9b 31 3b b9 8d 58 3c
       0.0364666 -0.012186318 0.002710084 0.013217383
000150 a2 a8 6b 3b 5c e3 af 3c f9 c0 a9 3c f2 72 ad bc
       0.0035958667 0.021470718 0.0207219 -0.021172974
000160 4f 74 4d 3c 8b f2 c2 3c 33 f4 d3 3c 17 44 2c bb
       0.012539937 0.023797294 0.02587328 -0.0026285702
000170 84 79 ad 3a 14 57 71 3c ea 3d 16 bc c8 93 b7 bc
       0.0013235067 0.014730234 -0.009170035 -0.022409335
000180 48 37 05 3c 8e 02 b2 3c b4 ef cd bc e3 bf 56 bc
       0.008130856 0.021729734 -0.025138713 -0.013107273
000190 e8 db 1c bc 46 7e 69 bc c5 f9 69 3a 18 97 3b 3c
       -0.009573914 -0.014251297 0.0008925463 0.011449598
0001a0 c7 71 b3 3c eb db 19 3c b8 bc ce bb b3 e2 47 3c
       0.02190484 0.009390811 -0.006309118 0.012200045
0001b0 5e 32 cd bc 78 7a 19 3c 00 47 a1 bc fd ba 7b 3c
       -0.025048431 0.009367578 -0.019687176 0.015364406
0001c0 62 92 88 bb 10 0a 14 bc 6d b0 97 bc 48 69 4f 3d
       -0.004167841 -0.009035602 -0.018516744 0.050637513
0001d0 09 b0 28 3c d6 1a ce bb aa c6 ba 3c 9d 2f bf bb
       0.010295876 -0.00628982 0.022799809 -0.0058345334
0001e0 00 0d a2 3b a6 da ca bb 1d 1f 7f bc 4a 5d 23 bc
       0.0049453974 -0.0061906157 -0.015571383 -0.009970972
0001f0 b5 4f 94 3b 68 b4 87 bb f0 3c 8c bc 2d 3b 43 3c
       0.0045261034 -0.004141379 -0.017118901 0.011915964

network_body._body_endoder.seq_layers.2.weight f4 [128, 128]
000000 cb b3 e7 bc e8 e6 d2 bb 70 fd 9b 3d 47 8a a0 bd
       -0.028283974 -0.0064362176 0.07616699 -0.07838874
000010 dd e5 98 bd dd d8 23 3d ce e2 05 3e 4a a0 bc 3d
       -0.07465718 0.04000174 0.130748 0.0921026
000020 d1 5d 1d be c3 3b 1c be 03 38 93 3d da c6 c8 bd
       -0.1536782 -0.15257172 0.07188418 -0.09803553
000030 f3 64 a4 bc d2 3b 98 bd 93 4e fe bb ba 69 76 be
       -0.020067668 -0.07433285 -0.0077608316 -0.24063769
000040 b0 25 8a bd 6d 7e 44 3d c7 2b b4 bd 40 13 c8 bc
       -0.067454696 0.04797213 -0.08797412 -0.024423242
000050 93 a9 35 3e 9c b3 de bc 0f 39 b4 bd f4 46 38 3c
       0.17740469 -0.027185254 -0.087999456 0.011247385
000060 cd f2 c8 bd 82 df 30 3e 1d 92 b9 bd 11 24 42 bd
       -0.098119356 0.17272761 -0.09061072 -0.047397677
000070 0d b7 61 3d 9d 44 b5 3c 54 72 0d bc 39 df f6 3d
       0.05510621 0.022127444 -0.008633215 0.12054295
000080 c8 85 9c 3d e3 bc 94 3c 8c e4 af 39 f6 94 12 3d
       0.07642704 0.018156474 0.00033548882 0.03578659
000090 0c 84 ff bd 8a 34 8e 3c 6b af 7d bd 21 c5 3f bd
       -0.12476358 0.017359037 -0.06193487 -0.046818856
0000a0 2c db 14 bc 3d 7c 04 3d 32 bd 2e 3e 82 27 b5 3d
       -0.009085458 0.032345045 0.1706436 0.08845426
0000b0 aa 9d 41 3d 23 2f 1e be 04 66 87 3d 5c 9c 3c bd
       0.0472695 -0.15447669 0.06611255 -0.046047553
0000c0 02 cf c1 3d 6f e1 50 3b b9 67 25 3d f8 3e 5e bd
       0.09463312 0.003187265 0.04038212 -0.05425927
0000d0 3a 65 98 3d 67 13 8c 3d 2d 94 25 bd 31 6f bb bd
       0.074411824 0.06839638 -0.040424515 -0.091520675
0000e0 95 e7 05 3c 83 a7 88 3e dc d2 8a 3d e0 bb d2 bd
       0.008172889 0.266903 0.067784995 -0.102897406
0000f0 48 56 24 be 35 7a 15 3d 6c b1 20 3d 77 67 76 3d
       -0.16048539 0.0364935 0.039231703 0.060157266
000100 6c 21 be bc 2e d9 8e 3d 2f 0b da 3d 46 da 4b 3a
       -0.023209296 0.069750175 0.10646664 0.0007776361
000110 26 c5 09 3c 54 74 13 3a 44 2f 30 be 44 92 72 bb
       0.00840882 0.0005624939 -0.1720553 -0.003701345
000120 3d 52 e0 3d 7d d3 2b be 19 35 03 bd 67 b2 94 bc
       0.10953186 -0.16779895 -0.03203306 -0.018151475
000130 13 ad 0b ba 71 b9 84 bd 1e fc 85 3d 71 81 0a 3c
       -0.0005328219 -0.06480683 0.06542228 0.008453713
000140 a8 3b 12 be b8 4a cb bc c2 c0 84 3e d6 a1 02 be
       -0.1428057 -0.024815902 0.25928313 -0.12757048
000150 4b 43 42 ba 0b 5b db bd 50 59 33 bd 34 67 9d bd
       -0.000741054 -0.107107244 -0.043786347 -0.076857
000160 34 b9 8b 3d 7b eb d2 3d 8d 5a 6d be e5 e3 d7 3d
       0.06822434 0.102988206 -0.23179074 0.10541514
000170 0e f7 11 bd d9 07 da bd c3 c4 30 3d 01 0b 81 3d
       -0.035636 -0.10646028 0.043156397 0.06300927
000180 72 d5 0b 3d 50 36 52 be e5 4c 21 3e 10 de b6 bd
       0.034139104 -0.20528531 0.15751989 -0.08929074
000190 fd 4a 50 3c ad df 33 3e e7 da 9f bd 60 6c 5a bd
       0.012713191 0.17565794 -0.07805424 -0.05332601
0001a0 52 d3 8b 3d 1a 14 1b be 1a fb 84 bd 5a 65 86 bd
       0.068274155 -0.15144387 -0.06493206 -0.065623
0001b0 ed bc 8e 3d 63 c9 46 3d 2b 36 0c be 5b 8b ec bd
       0.069696285 0.0485319 -0.13692538 -0.115500174
0001c0 c2 ab 3a 3e 78 d2 23 3e a5 4b 8a bc d1 3b 0e 3e
       0.18229583 0.15998256 -0.016881773 0.13890006
0001d0 41 a9 08 bd 73 e7 d2 bd 90 85 b1 3c 1f 27 a9 bd
       -0.033364538 -0.10298052 0.021670133 -0.08259415
0001e0 5b 88 90 bd a7 3d 38 3d a5 c2 1f be 7e 76 f9 3b
       -0.07057258 0.04498067 -0.15601595 0.0076130023
0001f0 d1 df 5a 3b 88 22 3e bd 11 ab b3 bd e8 7e 48 be
       0.0033397565 -0.04641965 -0.08772863 -0.19579661
000200 73 ce 8e be b1 05 0b be 28 32 23 3e 41 64 e7 3c
       -0.27891883 -0.1357639 0.15937102 0.028246047
000210 42 d5 7b 3d 7b 38 55 bd a1 14 b3 3a c2 d7 cf bc
       0.061482675 -0.052055817 0.0013662764 -0.025371436
000220 a6 07 05 3e 62 62 5c 3e 94 27 b8 3d 41 30 1c 3d
       0.12991199 0.21521905 0.08991924 0.038131956
000230 98 a3 94 3c 5c 1b 2d bc b1 05 13 be 6f 67 6a be
       0.018144414 -0.010565605 -0.1435764 -0.2289102
000240 07 fd a6 bd a1 e1 a9 3d b8 72 15 bb 63 92 e9 bd
       -0.0815373 0.082949884 -0.0022803973 -0.11404874
000250 8e 6c df bc 4a 10 55 3e a0 c9 32 3b e4 58 42 bd
       -0.027273443 0.20806995 0.0027280822 -0.047448054
000260 6c eb 17 be a5 66 df 3d a6 44 ef 3c 22 fe 45 3d
       -0.148359 0.1090825 0.029207539 0.048338063
000270 76 dc 0e be 24 ce b7 bd 10 a0 62 be e6 26 9e ba
       -0.13951287 -0.08974865 -0.22131371 -0.0012066036
000280 c8 43 f3 bd 76 9f d1 ba 90 ef 02 3e fb 47 07 be
       -0.118781626 -0.0015992958 0.12786698 -0.13211052
000290 4d 27 08 be 46 11 2f bb 02 e7 96 bc c4 e6 87 be
       -0.13296242 -0.0026713177 -0.0184207 -0.26543248
0002a0 e8 10 23 bd 49 36 05 3e ba f3 54 bc 25 12 21 be
       -0.039811045 0.1300899 -0.012997562 -0.15729578
0002b0 1f dc 04 be 66 3f 14 bc 0d af bc 3d 0c c4 83 bd
       -0.12974595 -0.0090483185 0.09213076 -0.06433877
0002c0 12 85 83 3d 8e 58 01 be 6c ce 64 be 39 37 5f 3d
       0.064218655 -0.12631437 -0.22344369 0.054496024
0002d0 90 87 8a bd a4 00 30 3e 4c 8a 49 3e 09 b2 68 bd
       -0.06764138 0.17187744 0.19681662 -0.056810413
0002e0 f7 d6 bf 3d c3 01 e8 3c 8c db be bd 9e 67 21 bd
       0.09367173 0.028321153 -0.09319219 -0.039405458
0002f0 4c 65 ce 3d b3 77 a6 3d ab 28 c0 3d a7 53 f7 3c
       0.100779146 0.081282996 0.09382757 0.030191256
000300 d8 6b 62 3d c7 68 a6 3c f6 f4 82 3d ef 6f f9 3d
       0.05527863 0.020313634 0.06394379 0.12179553
000310 34 9e 6d bc f3 c4 5c bc a2 88 1e be 6f b1 a2 bc
       -0.014503051 -0.013474691 -0.15481809 -0.019859998
000320 af 06 7a bd 64 68 2e 3d 25 a0 f8 3c df 9d d6 3d
       -0.06104153 0.042580023 0.0303498 0.1047933
000330 27 c5 96 bc 06 0d 02 be 79 cc a8 3d 3b 2c 0b 3e
       -0.018404556 -0.1270028 0.08242125 0.13591091
000340 b6 26 2a be 6a 92 bd 3c 2f 7d 36 3c 99 e7 07 bd
       -0.1661633 0.023141105 0.0111382445 -0.033179853
000350 6c ee cf bc fb 9a bc bd 9c 74 1e bb 15 a9 a0 3d
       -0.025382243 -0.09209248 -0.0024178391 0.0784475
000360 92 27 70 bd ef 02 47 bd e5 74 35 3e 99 9c 17 3d
       -0.058631487 -0.048586782 0.17720373 0.037014578
000370 ca d9 b8 bd 0a bc d2 3c e7 be 93 3d cd 84 7b 3b
       -0.09025915 0.02572443 0.07214146 0.0038378716
000380 13 33 67 3d f7 7e e5 bd 27 8e 4c 3e 8f f9 66 3d
       0.056445193 -0.11205857 0.19976102 0.05639034
000390 8b 66 27 bd a4 ec d6 bd 06 f9 96 3d 0f 28 d1 bd
       -0.040869277 -0.10494354 0.07371716 -0.10212719
0003a0 12 12 37 3e 61 75 75 bd 96 47 19 bd 45 29 dd ba
       0.17877987 -0.059926394 -0.037421785 -0.0016873261
0003b0 48 a5 d8 3d d7 52 ff 3d ad f9 56 bc 91 32 00 be
       0.105784 0.12466972 -0.013121051 -0.1251929
0003c0 65 fa 0e be 50 64 3b 3d 05 7c 5e bd 19 84 1b 3d
       -0.13962705 0.045749962 -0.054317493 0.037967775
0003d0 0b 6d 9a 3a 5e b0 10 3d f2 fa a2 3d 29 25 81 bd
       0.0011781765 0.035324447 0.0795802 -0.06305916
0003e0 56 7d ce bb 47 4c 43 3c 42 b9 72 be 9c 1b 75 3d
       -0.0063015623 0.011920041 -0.23703483 0.059840783
0003f0 89 04 09 3e 9a a6 ae bd 7f 3c b9 ba 5e 86 f7 3d
       0.13380636 -0.085278705 -0.0014132409 0.120861754

network_body._body_endoder.seq_layers.2.bias f4 [128]
000000 2e 05 55 3b 5e 11 9b bc 53 8e 7e bc ff 11 2a 3c
       0.0032504308 -0.01892918 -0.015536862 0.010380267
000010 ff ae a5 bc 3b ac 52 bb 43 db 89 bc e0 0f 1f bc
       -0.020225046 -0.0032146114 -0.016828185 -0.009708375
000020 16 5b ac 3c a2 f0 df 3b b6 8f a8 ba 61 48 95 3c
       0.021039527 0.0068341056 -0.0012860212 0.01822299
000030 00 2d 26 bc 8c 09 9e bb a1 58 de bb e9 a4 e7 3b
       -0.010142565 -0.0048229154 -0.0067854677 0.0070692194
000040 d9 31 58 3c 7c 39 0f 3c 5b 2f f1 bb 4d 47 30 bb
       0.013195478 0.008741733 -0.0073603815 -0.0026897967
000050 40 69 d1 3c 20 3b 62 bc 10 ea 1f bc bf ab ae bc
       0.025562882 -0.013808042 -0.009760395 -0.02132213
000060 85 80 55 3c 6f fd 4e bc 17 7a 96 3c 62 92 a3 3c
       0.01303113 -0.012633665 0.018368764 0.019967262
000070 a1 c6 b2 3b 0b aa 25 3c df 2b 26 bc 9b 3c db bb
       0.0054558073 0.010111342 -0.010142296 -0.0066905743
000080 30 8b eb bb 27 cb 3b bc 9c 5c 34 3c 29 b4 65 bc
       -0.0071882233 -0.0114620095 0.011008408 -0.014020004
000090 a7 4a b0 3c fb 36 3c ba 25 0d c4 bb 1d ba 8b 3c
       0.021519972 -0.00071798236 -0.0059830123 0.01705652
0000a0 e3 c3 2b 3c de 1e 7c bc a8 fb 9f 3c 32 00 45 3c
       0.010483715 -0.015388219 0.019529179 0.012023972
0000b0 83 b6 e4 3c 89 51 50 3c 45 c6 56 bb 27 da a4 3c
       0.02791906 0.012714752 -0.0032771986 0.020123554
0000c0 51 61 50 bb 94 1e e2 bb 62 08 4e bc 2c 08 a4 3c
       -0.0031796286 -0.006900618 -0.012575241 0.020023428
0000d0 28 3d 3f 3c 82 c8 b3 bc a6 f2 d1 3b 16 19 1c bc
       0.011672296 -0.021946196 0.0064071 -0.009527465
0000e0 12 01 b9 3c 22 9e 87 bc b4 29 5c 3b 2a 83 0f bc
       0.022583518 -0.016554896 0.0033594193 -0.008759299
0000f0 f3 16 a1 bc b4 80 80 bb 8b c4 33 3c b4 3e 00 3c
       -0.019664263 -0.0039215926 0.010972152 0.00782745
000100 2b aa 6e 3c cb 75 54 3c 30 b6 9d bc 29 57 8f 3c
       0.014566938 0.012967537 -0.019251913 0.017497616
000110 a0 d2 a2 3c 31 a3 44 bc 0a 41 2b 3b 58 ef a7 bc
       0.019875824 -0.0120017985 0.0026131296 -0.02049987
000120 6c fc 83 3b d8 4c 15 bc a6 2a ae bb 6e 54 30 bc
       0.0040278938 -0.009112559 -0.0053151427 -0.010762317
000130 30 f4 b6 3c 9f 48 bc 39 71 a8 c7 3b 8d 2e 9d 3c
       0.022333235 0.0003591226 0.006093078 0.019187236
000140 40 f1 3f bc c7 67 b6 3b 64 62 56 bc 19 e6 8c bc
       -0.011715233 0.0055665704 -0.013084982 -0.017199563
000150 9f 83 b2 ba f6 d8 ac 3c 58 b1 53 3b 18 ce 90 3b
       -0.0013619548 0.021099549 0.003230175 0.0044190995
000160 89 73 46 3c 5a bf 15 bb c3 41 16 3b 21 2c 46 3c
       0.012112507 -0.002284965 0.002292738 0.012095482
000170 6c 4c b7 3c 3e af b3 3c 06 8b 80 3c 94 ea 9c 3c
       0.022375308 0.021934148 0.015691292 0.019154824
000180 01 fe 17 bc a5 8c 65 3b a7 af 7f 3c 1a 55 92 bc
       -0.009276868 0.0035026458 0.015605844 -0.017862845
000190 49 0a 82 3c e4 c5 6e 3c 39 4b 42 3c 84 14 b8 bb
       0.015874045 0.014573548 0.011858755 -0.00561768
0001a0 cf c9 80 3c 6e 46 ec bb 6f b7 e5 3b 35 fe dd 3b
       0.01572123 -0.0072105443 0.0070103924 0.0067746886
0001b0 65 7d 8e bc 7e 08 ee ba 28 30 81 3c f1 95 a1 3c
       -0.017393777 -0.001816049 0.015770033 0.019724818
0001c0 33 57 bf bc 6c 32 26 3c 92 bb e8 bb a5 d1 38 bc
       -0.02335701 0.010143857 -0.0071024382 -0.011280452
0001d0 11 a8 96 bc 47 4c f1 3b b4 fa 2a 3c 05 cf c5 3a
       -0.018390687 0.0073638293 0.010435749 0.0015091604
0001e0 d5 87 8b ba 12 cf 19 3c c0 8f db 3a 92 cc 1a bc
       -0.001064534 0.009387748 0.0016751215 -0.009448187
0001f0 10 0a 28 bc f5 73 53 bc 6d 0a 4b bb e3 0b 99 3b
       -0.010256305 -0.012906064 -0.0030981556 0.0046706065

action_model._continuous_distribution.log_sigma f4 [1, 2]
000000 52 41 c7 bd 60 c7 b6 bd
       -0.09729256 -0.089247465

action_model._continuous_distribution.mu.weight f4 [2, 128]
000000 50 7d 70 bc 18 ec e8 bc 2e b7 b1 bc 09 63 37 3d
       -0.014678314 -0.02843289 -0.021693792 0.04477218
000010 67 a8 1f bb 98 72 ad bb 31 55 a8 bc f0 b0 a8 3a
       -0.002436185 -0.0052932017 -0.020548435 0.0012870114
000020 61 35 94 3c 12 cb 3b 3d 76 6b 72 3c 93 04 e8 3c
       0.01809186 0.04584796 0.0147961285 0.028322494
000030 07 20 fc bc c5 63 5c bc d1 e0 3c bd 2a 9e f6 3c
       -0.03077699 -0.013451521 -0.04611284 0.030104715
000040 47 28 37 bd 1b c7 0b 3c df 2b d0 bc cc d1 8a bc
       -0.044716146 0.008531357 -0.025411544 -0.016945742
000050 e3 fc 0b 3d cd 6a c9 3b e9 08 1a bd cb f6 1c bc
       0.03417672 0.006146765 -0.037606154 -0.009580324
000060 a9 55 f0 3b f0 42 05 bd 22 a6 70 bd 1e ab dc 3b
       0.0073344302 -0.03253454 -0.058752187 0.006734266
000070 5f 65 9f 3b e6 c8 91 3c 44 f1 08 bc f2 19 ad bc
       0.0048643793 0.017795991 -0.008358303 -0.021130536
000080 2d 52 c1 bc 6a 2d de 3c 76 1a b9 3b 48 3e c7 bc
       -0.023598755 0.027121264 0.0056489063 -0.02432169
000090 48 d4 ec 3c 23 b5 99 3b 4e c0 1c bd b4 a6 8c 3c
       0.028909817 0.0046907826 -0.038269334 0.017169334
0000a0 2a 82 00 bc 80 5a eb bc 5e a3 f2 3c c9 80 95 3c
       -0.0078435335 -0.028729677 0.029618915 0.018249886
0000b0 aa ad 93 3c a3 49 9c bd 87 65 5d bc c2 47 cf 3c
       0.018027145 -0.076312326 -0.013512976 0.025302771
0000c0 be 89 86 3b 63 8b 26 bc e5 18 33 bc 28 a5 a9 3c
       0.0041057756 -0.010165068 -0.010931228 0.020708635
0000d0 85 b7 4c 3c a5 cb 03 bb 01 b2 11 3c 2d 2d d9 3c
       0.012494926 -0.0020110395 0.008892537 0.0265108
0000e0 e9 12 8f 3c bc 16 3e bd 61 42 71 bc 0a bc 16 bd
       0.017465072 -0.0464084 -0.014725299 -0.03680042
0000f0 56 d8 40 bd bc b8 f2 bb ba 81 54 3c 22 20 40 3c
       -0.047081314 -0.007407276 0.012970382 0.011726411
000100 fb 9f b7 3b 1a ed 52 3c 2e 0e 69 bc f3 79 85 3c
       0.005603788 0.012873912 -0.014224572 0.016293501
000110 cc ed f7 3c fc 79 a6 bc 6e af 39 3c f0 a3 71 bc
       0.030264758 -0.020321839 0.01133333 -0.014748558
000120 0b a1 f1 bb bb 94 20 bc 34 8b 79 3b 39 cc 16 39
       -0.007373934 -0.009801085 0.0038077356 0.00014381194
000130 e1 0d 0d 3c 53 8d 60 bd e8 df f7 3b 8e e8 bf 3c
       0.008609266 -0.054822277 0.0075645335 0.02342632
000140 00 cd 9e 3c 90 dd 57 3c 4a 55 5a bc ab b7 08 bd
       0.019384861 0.013175383 -0.013325999 -0.033378284
000150 c9 3c 58 3c 60 27 e1 bc 40 93 ce 3c 4e 06 07 bc
       0.013198086 -0.027484596 0.025216699 -0.008241249
000160 e4 b8 b4 3c 4a a2 eb bb 93 e9 fb bc f4 20 28 3d
       0.022060819 -0.007190977 -0.030751025 0.04104705
000170 59 4d fe 3c b1 28 86 3c a5 53 06 3c d8 6a 0e 3c
       0.031042742 0.016376825 0.008198653 0.008692466
000180 a6 76 6f 3c 20 c3 16 ba 9f 92 a9 3c 21 69 c3 bb
       0.01461569 -0.0005751122 0.020699797 -0.00596346
000190 96 06 6b 3c df 87 15 3c 92 5d a6 3c b3 04 86 3b
       0.014344832 0.0091266325 0.02030829 0.0040899157
0001a0 0c f9 69 3c 33 44 74 bc 1e ec 9d 3b ca b5 03 bd
       0.014280569 -0.014908838 0.004819407 -0.03215579
0001b0 37 6a 04 bd ca 52 b4 ba 97 58 d8 3c 92 76 2c 3d
       -0.032327857 -0.0013757583 0.02640943 0.042105265
0001c0 bf bc c9 bc 74 b0 24 bb 13 76 a8 bb a8 47 01 bc
       -0.024626134 -0.0025129588 -0.0051410287 -0.007890619
0001d0 57 ef ff bb 67 0d 05 3d bd 7b d8 3b 88 3f 74 bd
       -0.007810514 0.032483485 0.0066065476 -0.0596309
0001e0 1e 4b 0a bc 4e 27 18 3c 4b ef 06 bd d8 05 a0 bc
       -0.008440761 0.009286715 -0.03294305 -0.019534037
0001f0 ec 91 44 3b 7e 08 a0 3c 17 c2 13 bd 11 c1 74 3c
       0.0029994203 0.0195353 -0.03607377 0.014938609
000200 cc c9 4c bd 96 ae ff 3c f0 e1 10 bc 65 93 2f bd
       -0.049997136 0.031211179 -0.00884293 -0.042865176
000210 8f b5 7f 3c 01 a6 e0 bc 09 a8 88 3c ac 11 1d 3d
       0.015607252 -0.027422907 0.016681688 0.03834693
000220 02 1b 3c bc 75 6e a8 ba 29 af 09 3d 4d d5 63 bb
       -0.011481049 -0.0012850302 0.03361431 -0.0034764588
000230 d5 8c c2 bc 7c 45 3e bc e7 cc 69 bc d8 8d 53 3d
       -0.023748795 -0.011613246 -0.014270044 0.051648945
000240 86 77 2f 3d c6 8d 07 3d 8f 07 77 3c 68 d6 63 bc
       0.042838596 0.03309419 0.015077486 -0.013906099
000250 e1 76 73 bc 35 54 7b 3c 03 39 27 bb 26 8c 67 3c
       -0.014859886 0.015339901 -0.002551616 0.014132535
000260 cd 96 d1 bb c4 fe 06 3d f9 f1 31 3c cc ca eb bb
       -0.0063961507 0.032957807 0.010860913 -0.007195806
000270 33 a7 88 3c d5 24 10 3d c9 9f f9 3c 3a f2 1e 3d
       0.01668129 0.035191376 0.0304717 0.038805224
000280 32 78 c1 3a 57 49 59 bb 8e 7e d2 bc d2 87 28 bc
       0.0014760552 -0.0033155286 -0.025695112 -0.010286288
000290 eb e2 53 bc 84 b5 96 3b 98 83 b5 bc 4d 15 b8 bb
       -0.012932519 0.004599275 -0.022157475 -0.0056177736
0002a0 0d 3e 92 bc 0e 8e 89 3c c5 c8 86 bc 0b 7f 46 bb
       -0.017851854 0.01679137 -0.016453156 -0.0030288126
0002b0 73 e2 fb bc 99 51 07 bd 7d 16 cd 3b 7b e0 ab bb
       -0.030747628 -0.033036802 0.0062587843 -0.005245266
0002c0 26 54 86 3c 2e 7b 95 bc e9 22 49 3d a8 d8 ed bc
       0.016397547 -0.018247213 0.04910556 -0.029033974
0002d0 36 d2 bb 3b 4c c4 dd 3a 29 f2 f8 bc 25 4d 03 3d
       0.005731846 0.0016919463 -0.030388908 0.032055993
0002e0 8b e0 0d bc d8 75 0d 3c fd 1b 7d 3d e4 61 cb ba
       -0.008659492 0.008634053 0.06179427 -0.0015516845
0002f0 15 51 ec bb 12 ee c8 bc ae 43 33 bd be a0 f6 3c
       -0.007211814 -0.024527583 -0.043765716 0.030105945
000300 80 32 f0 b9 81 54 33 3c fd a5 0c 3c f3 80 f8 bc
       -0.00045813993 0.01094544 0.008584497 -0.030334925
000310 d1 f0 2c bc 60 2d 6f bc 7d b3 92 3c 2c 50 7b 3c
       -0.010555462 -0.014598221 0.017907852 0.015338939
000320 b8 a5 46 bc c7 c5 71 b9 21 39 c3 3c b1 39 0b 3d
       -0.012124471 -0.00023057229 0.023830952 0.033990566
000330 13 ab 4d bc 34 93 15 3c 41 2c 3f bc 3b 3b 21 bd
       -0.012552994 0.009129334 -0.011668266 -0.039363127
000340 2a 70 31 3c 73 32 1a bd 21 f7 2f 3d 59 4b f2 bc
       0.010829965 -0.03764577 0.04296029 -0.029576944
000350 6b d6 a3 bc fb 3b 90 bc 48 1e 8e 3c ca f9 6a bd
       -0.019999703 -0.017606726 0.017348424 -0.057367124
000360 1b 07 dc 3c bc 77 5a bc d9 cf 5e 3b 9f 54 d7 bc
       0.026858857 -0.013334211 0.0033998399 -0.026285468
000370 04 3e da 3c 62 77 24 bc 2f 0f ff bc 14 b0 8c bc
       0.0266409 -0.010038229 -0.03113517 -0.017173804
000380 db 76 35 3c ad 87 df bc e2 69 21 bb d7 65 34 3c
       0.011075701 -0.027286375 -0.0024629761 0.011010609
000390 7b e4 62 3b d3 bb 70 bc 9e d2 11 3a 4a e0 fa 3c
       0.0034621048 -0.014693218 0.00055626954 0.030624527
0003a0 2b c4 96 3a fe e5 62 bc 24 1a d4 3c 29 60 57 bd
       0.0011502554 -0.01384878 0.025891371 -0.05258194
0003b0 58 c8 a6 3c e8 e0 f8 3a 32 ad 04 bd d4 bd 0b ba
       0.020359203 0.0018987926 -0.032391734 -0.0005330716
0003c0 d8 81 49 3c 95 72 5b 3d 80 1e 4a bc b1 f9 86 bc
       0.012299024 0.05357607 -0.012336373 -0.016476484
0003d0 89 9d b3 3c 81 80 0e bd e9 a4 19 3d 00 70 f9 bc
       0.021925705 -0.03479052 0.037510786 -0.030448914
0003e0 33 24 56 bd 04 eb b9 3a 3c 09 a5 3a b9 5c 74 3d
       -0.052280616 0.001418442 0.0012591253 0.05965874
0003f0 4a 12 1f bc 5e ec 5f 3b 20 f4 09 3b 10 ec 6e bb
       -0.00970895 0.0034167985 0.002105005 -0.0036456622

action_model._continuous_distribution.mu.bias f4 [2]
000000 16 e1 94 3c 59 68 cc bb
       0.018173736 -0.006238025
