Assets/ML-Agents/Models/MoveToGoal 2.onnx (onnx, 72851 bytes, 7 tensors)

network_body._body_endoder.seq_layers.0.weight f4 [128, 6]
0	0x3e6db5c3	0.23213868
1	0xbdc61c0f	-0.096733205
2	0x3cb0b579	0.021570908
3	0x3b850e1e	0.004060521
4	0x3ef86923	0.48517713
5	0xbf33a2fc	-0.7017057
6	0xbd9fe6e7	-0.07807713
7	0xbeef3416	-0.46719426
8	0xbe6d54f2	-0.23176935
9	0x3e14cdc3	0.14531617
10	0x3e468483	0.19386487
11	0x3f0e60ef	0.5561666
12	0x3f12b55a	0.5730797
13	0xbe208e4b	-0.1567928
14	0xbf5a638a	-0.85308135
15	0xbecadf81	-0.39623645
16	0x3d8614bb	0.06546923
17	0x3e8656b4	0.26238024
18	0x3c99bd82	0.018767122
19	0xbeb583b0	-0.35452032
20	0x3eb9e1de	0.36305135
21	0x3c893a88	0.016751543
22	0xbe8da9dd	-0.27668658
23	0xbde3286a	-0.11091693
24	0xbe677668	-0.22603762
25	0xbee58ff0	-0.44836378
26	0xbea8325c	-0.3285092
27	0xbdfe8b5a	-0.12428923
28	0x3ec7efce	0.39050144
29	0xbd82488e	-0.06361495
30	0xbd69b976	-0.057061635
31	0x3e05c7ce	0.130645
32	0xbe0d1489	-0.13777365
33	0x3e7a0031	0.24414136
34	0xbe924458	-0.28567767
35	0xbf1f89c4	-0.6231959
36	0x3eeaa9b2	0.45832592
37	0xbf09d3d1	-0.5383883
38	0x3e12754e	0.1430256
39	0xbd9a8776	-0.075453684
40	0xbee7240d	-0.45144692
41	0x3dcb4c9c	0.099267215
42	0xbebb52b0	-0.36586523
43	0xbdf06dda	-0.117397025
44	0x3e8165aa	0.25272876
45	0x3ed5ff2e	0.4179625
46	0xbecc1a27	-0.39863703
47	0x3e427f68	0.18993914
48	0x3e70d7ec	0.23519868
49	0xbf52b2c8	-0.8230405
50	0xbe3af685	-0.18258102
51	0xbeea0d9e	-0.45713514
52	0xbe98d524	-0.29850113
53	0x3e9035bf	0.28166005
54	0xbf2ebb98	-0.68254995
55	0xbe79f746	-0.24410734
56	0xbe955a85	-0.29170623
57	0xbe9c102d	-0.3048109
58	0xbea026a3	-0.31279477
59	0x3dc9ccfd	0.098535515
60	0xbe5474f8	-0.20747745
61	0x3da026f4	0.0781993
62	0x3e641087	0.2227193
63	0xbee86440	-0.45388985
64	0x3e4904d0	0.19630742
65	0x3e69b397	0.22822414
66	0xbe465e40	-0.19371891
67	0xbe2edcbe	-0.17076394
68	0xbd64a268	-0.055818945
69	0xbe34f94a	-0.17673221
70	0xbe82a781	-0.2551842
71	0x3f86e4f8	1.0538626
72	0x3e1fed7f	0.15617941
73	0xbe566799	-0.20937957
74	0x3e64e853	0.2235425
75	0x3ebf30d1	0.3734193
76	0x3ea7a400	0.3274231
77	0x3da84bc1	0.08217574
78	0xbd896ea1	-0.06710554
79	0x3eb13ec5	0.34618202
80	0xbeb59b85	-0.35470214
81	0xbf2a4720	-0.6651478
82	0x3eb0c3c6	0.34524363
83	0x3f1ca7b1	0.61193377
84	0x3f0ec456	0.55768335
85	0xbd987cbb	-0.074456654
86	0x3efa21c6	0.48853892
87	0xbf2f3e51	-0.6845446
88	0xbe2f52e1	-0.1712146
89	0xbc9607e4	-0.01831431
90	0x3f11be20	0.5693073
91	0x3d376ab9	0.044779513
92	0xbc36fbec	-0.011168461
93	0xbf711d54	-0.94185376
94	0x3ddc2332	0.107489005
95	0xbde32750	-0.11091483
96	0x3e534549	0.20631899
97	0xbea881ee	-0.32911628
98	0x3c827845	0.01592649
99	0xbf5e0022	-0.8671895
100	0xbee6d381	-0.4508324
101	0xbe654e93	-0.22393255
102	0xbea71e76	-0.32640427
103	0xbec7247f	-0.38895032
104	0xbe33c983	-0.1755734
105	0xbf28b957	-0.65907806
106	0x3de92984	0.113848716
107	0xbeab0d83	-0.33408746
108	0xbe50a0f9	-0.20373906
109	0x3e84c423	0.2593089
110	0xbf2b6306	-0.6694797
111	0x3edc5775	0.43035474
112	0x3ea58000	0.3232422
113	0x3e254dfd	0.16143031
114	0xbcd83d8f	-0.02639654
115	0xbec8c0ad	-0.392095
116	0xbf133a6d	-0.57511026
117	0x3dbef739	0.09324498
118	0xbeb1ecd3	-0.34750995
119	0x3d4a340d	0.049366046
120	0x3eb252fc	0.34828937
121	0xbe3cd823	-0.18441825
122	0xbec4adeb	-0.3841394
123	0x3b60ed99	0.0034321307
124	0x3f28b215	0.6589673
125	0x3c357e5f	0.0110774925
126	0xbe50f3ad	-0.20405455
127	0x3e78fab2	0.24314383
128	0x3f1043b6	0.5635332
129	0xbeac0dd2	-0.33604294
130	0xbf133bae	-0.5751294
131	0xbe10209a	-0.14074937
132	0xbda1f6e8	-0.07908422
133	0x3eb802e5	0.35939708
134	0x3f10cbc3	0.56560916
135	0xbe1906e1	-0.1494403
136	0xbdcea5c9	-0.10090215
137	0xbf6535ad	-0.8953503
138	0x3f2d4534	0.6768372
139	0x3ce29ace	0.027661707
140	0xbf14c2e9	-0.5810991
141	0x3c07af95	0.008281608
142	0x3e1f53e9	0.15559353
143	0xbec6863c	-0.38774288
144	0xba0b3f83	-0.0005311893
145	0x3f7ac575	0.97957546
146	0xbd0b6b8d	-0.034038115
147	0x3e7bc398	0.24586332
148	0x3da69250	0.08133376
149	0xbeb61576	-0.35563248
150	0x3e9a08d2	0.30084854
151	0xbd8241ab	-0.063601814
152	0xbd89b020	-0.06723046
153	0x3e7a39da	0.24436131
154	0xbe00afe1	-0.12567092
155	0xbe9ada5d	-0.30244723
156	0xbe037c98	-0.12840497
157	0x3cc9d3eb	0.024637183
158	0xbcbe03a2	-0.023195092
159	0xbedc367f	-0.43010327
160	0xbe898c9a	-0.26865083
161	0x3dc62fb3	0.09677067
162	0x3f129288	0.5725484
163	0x3f202442	0.62555325
164	0x3edba15f	0.42896554
165	0x3f27ce0a	0.65548766
166	0x3f5bbe0f	0.8583688
167	0x3e8ff236	0.2811448
168	0xbe6251c3	-0.22101502
169	0x3f1697e4	0.58825517
170	0x3e357e76	0.17724022
171	0x3de95c3e	0.11394547
172	0xbe733d1b	-0.23753779
173	0xbdc07dee	-0.09399019
174	0x3e41a48c	0.18910426
175	0x3ca847e6	0.020542096
176	0x3eef719d	0.46766368
177	0x3eb8137a	0.3595236
178	0x3b72144a	0.0036938363
179	0x3da06865	0.07832412
180	0xbe496f8d	-0.1967146
181	0x3df5c9b2	0.12001361
182	0x3f3a5a16	0.7279371
183	0x3e83cb7a	0.25741178
184	0x3f6d3a87	0.9266743
185	0x3daf64b1	0.08564127
186	0x3f1fc53e	0.6241034
187	0xbe56b1f7	-0.20966326
188	0x3e6e07e6	0.232452
189	0xbe1df26a	-0.15424505
190	0x3b31c610	0.002712611
191	0x3f1f959b	0.62337655
192	0xbdfe3688	-0.12412745
193	0x3e8ee680	0.27910233
194	0xbe20b388	-0.15693486
195	0xbec49361	-0.3839369
196	0x3e945423	0.2897044
197	0xbda29917	-0.07939356
198	0xbf29493e	-0.66127384
199	0x3ec450b0	0.3834281
200	0xbf0a289a	-0.53968203
201	0x3e5dd302	0.21662524
202	0x3e3748c6	0.17898855
203	0xbea56c79	-0.3230932
204	0x3e1ac406	0.1511384
205	0xbe066264	-0.1312347
206	0xbf271070	-0.65259457
207	0xbea6b4ce	-0.32559818
208	0x3f0b112d	0.54323083
209	0x3e377809	0.17916884
210	0xbe88c01d	-0.2670907
211	0x3ee3e7b2	0.44512707
212	0x3f498277	0.787147
213	0xbdc61aa5	-0.09673051
214	0x3c96419b	0.01834183
215	0xba6fa257	-0.0009141317
216	0xbe43ebf7	-0.19132982
217	0x3ec6b09d	0.3880662
218	0x3ecbd356	0.39809674
219	0xbf297a4a	-0.66202223
220	0x3e0fa5fd	0.14028163
221	0xbf2e0b9d	-0.6798647
222	0xbd06b007	-0.032882717
223	0xbe60b675	-0.21944602
224	0x3ddcc938	0.10780567
225	0x3e231ed7	0.15929733
226	0x3e12bdda	0.14330235
227	0x3e2d2c5d	0.16911454
228	0xbe864db1	-0.2623115
229	0x3ea00e27	0.31260797
230	0xbe258cf0	-0.16167045
231	0x3f560ca7	0.83613056
232	0x3e45155a	0.19246426
233	0xbdb1b006	-0.08676152
234	0x3ea26cd5	0.31723657
235	0x3c7f0e8a	0.015567431
236	0x3f107190	0.5642328
237	0x3f021e79	0.5082775
238	0xbe2e84c5	-0.17042835
239	0xbe68bcf3	-0.22728328
240	0xbebeecd4	-0.3729006
241	0x3ee6b67c	0.450611
242	0x3ea29ce2	0.31760317
243	0x3f95bed3	1.169886
244	0xbeb6b6b8	-0.35686278
245	0xbee9fffc	-0.45703113
246	0x3eebd47f	0.4606056
247	0x3e483346	0.1955081
248	0xbebee98d	-0.3728756
249	0x3f2ac562	0.6670743
250	0xbeb96ff3	-0.36218223
251	0x3f13cea9	0.57737213
252	0x3d22c4ed	0.039738584
253	0x3f398728	0.7247186
254	0x3e8bf933	0.2733856
255	0xbe5c4d32	-0.21513823

network_body._body_endoder.seq_layers.0.bias f4 [128]
0	0x3d3e37d5	0.046439964
1	0x3ab9c1f0	0.0014172178
2	0xbcd109fa	-0.025517453
3	0x39f28257	0.00046254948
4	0x3bc87768	0.00611775
5	0xbba24a9e	-0.0049527427
6	0x3a305a8b	0.0006727359
7	0xbcbb30f9	-0.0228505
8	0x3d4b2170	0.049592435
9	0x3b8ecdef	0.0043580453
10	0xbba5e93e	-0.005063205
11	0xbcfd0ece	-0.030890848
12	0x3cb8a5ab	0.022539934
13	0x3ca71b8a	0.020398874
14	0x3c95da63	0.018292611
15	0x3d09c50a	0.033635177
16	0x3c59a99c	0.013285067
17	0x3c55f896	0.013059756
18	0xbb0180ba	-0.0019760565
19	0x3be59e01	0.007007361
20	0x3c417ebd	0.011810002
21	0x3bb47375	0.0055069276
22	0x3b919eca	0.004443978
23	0x3c00c270	0.0078588575
24	0xbaed2d1d	-0.001809511
25	0xbce9987a	-0.02851509
26	0xbbc42120	-0.005985394
27	0x3d0fcdfc	0.03510855
28	0xbc507e27	-0.01272539
29	0x3be26bbc	0.0069098156
30	0x3b8bfd31	0.004272126
31	0xbcd9f019	-0.026603745
32	0xbc30dc05	-0.010794644
33	0x3c962126	0.018326353
34	0xbab1323f	-0.0013519003
35	0x3ca97913	0.020687615
36	0x39c851d2	0.00038207934
37	0x3c1ef894	0.00970282
38	0x3c384083	0.01124585
39	0xbbcca20c	-0.0062449034
40	0x3c2dd289	0.0106092775
41	0xbb65fd14	-0.0035093473
42	0xbc8988a7	-0.016788794
43	0xbbcea209	-0.006305937
44	0x3c5cf1a1	0.013485343
45	0x3ccc95bd	0.024973745
46	0xbc8ef4bb	-0.017450681
47	0x3be5c288	0.0070117153
48	0x3bffef96	0.0078105433
49	0xbc00cf5a	-0.007861936
50	0xbc3b7b55	-0.011442979
51	0xbd11f3b4	-0.035632804
52	0x3c22bd5d	0.009932843
53	0x3c2f9962	0.010717722
54	0x3d0111c6	0.03151109
55	0x3d295fd6	0.041351162
56	0x3c99a37d	0.018754715
57	0x3c8d5229	0.017251091
58	0xbc890d38	-0.016729936
59	0x3c045c65	0.008078669
60	0xbc41ea04	-0.011835579
61	0x3c80fca6	0.015745472
62	0x3ce74d2d	0.028235042
63	0xbb675c46	-0.0035302802
64	0x3b118e5e	0.0022210102
65	0x3c88e073	0.016708588
66	0x39771c1c	0.00023566227
67	0x3cfed766	0.03110857
68	0x3d010cd9	0.031506393
69	0xbc97be34	-0.018523313
70	0xbd0c1b70	-0.034205854
71	0x3ba88824	0.0051431824
72	0x3be0a830	0.006855987
73	0x3c2e226c	0.010628324
74	0x3c949e17	0.01814179
75	0x3ca3920e	0.019967105
76	0x3c1efae8	0.009703375
77	0x3cb00c6c	0.021490298
78	0xbcfd73d3	-0.030939018
79	0x3c123003	0.00892258
80	0xbc226dc0	-0.009913862
81	0xbc4fa643	-0.012673917
82	0x3b313977	0.0027042308
83	0xbd0085b0	-0.031377494
84	0x3cf3d5f1	0.029765101
85	0x3c7882b2	0.015167879
86	0xbc9f7573	-0.019465184
87	0xbcb79512	-0.02240995
88	0xbcac795c	-0.021053962
89	0xbc40ea73	-0.011774647
90	0xbc9ea4d0	-0.019365698
91	0x3c93bf69	0.018035607
92	0x3b1d70f5	0.0024023626
93	0xbc5f8c1d	-0.013644245
94	0xbc2c5250	-0.010517672
95	0x3c02e64c	0.007989477
96	0xbd000cb9	-0.031262133
97	0x3cf36081	0.029709103
98	0x3c808d1a	0.015692282
99	0xbc380281	-0.011231066
100	0xbbd61af8	-0.0065339766
101	0xbbf1e69a	-0.007382226
102	0x3d42d2f3	0.047564458
103	0x3ca342cb	0.01992931
104	0xbb1850e1	-0.0023241567
105	0x3cf54f96	0.029945176
106	0x3c61817b	0.013763781
107	0x3d223e7a	0.039610364
108	0xbd5602ef	-0.05224889
109	0xbc632be1	-0.013865442
110	0xbc8261b2	-0.015915725
111	0x3cb2692e	0.02177867
112	0xba64b0c0	-0.00087238476
113	0x3ae85c3d	0.0017727684
114	0x3c8f5efa	0.017501343
115	0xbc027518	-0.007962488
116	0x3b857155	0.004072348
117	0xbc8dff44	-0.017333634
118	0x3ca641fe	0.02029514
119	0x3d02706e	0.031845503
120	0x3cefb202	0.029259685
121	0xbc80bfb6	-0.015716415
122	0xbcede521	-0.029039921
123	0x3d1d15bc	0.038350806
124	0x3c503813	0.012708682
125	0xbbebac28	-0.0071921535
126	0x3bc573d4	0.0060257707
127	0xbc60ea2b	-0.013727705

network_body._body_endoder.seq_layers.2.weight f4 [128, 128]
0	0xbe38de45	-0.18053539
1	0x3b9f0359	0.004852694
2	0xbd678f80	-0.056533337
3	0x3cce5848	0.02518858
4	0xbda1871f	-0.078871004
5	0xbc9b7775	-0.01897786
6	0x3d8a65b4	0.067576796
7	0x3d60ca25	0.05488028
8	0x3d867a63	0.06566312
9	0x3e00da23	0.12583213
10	0x3db44b00	0.088033676
11	0x3ddd4c17	0.108055286
12	0xbda0ab38	-0.078451574
13	0xbcd3bd61	-0.025847139
14	0x3d8f75f2	0.07004918
15	0xbd7b6e2f	-0.061384376
16	0x3ddbc5b5	0.10731069
17	0x3d32e122	0.043671735
18	0xbd238ba3	-0.03992809
19	0x3d6d4151	0.05792362
20	0x3d11712f	0.03550833
21	0xbd454e6c	-0.048170492
22	0x3dc64fa3	0.09683158
23	0xbd4a6520	-0.049412847
24	0xbd8f4930	-0.06996381
25	0x3c831879	0.01600288
26	0xbd1bc870	-0.03803295
27	0xbd853ff3	-0.06506338
28	0xbd408e24	-0.047010556
29	0x3db45a23	0.08806255
30	0x3daa754a	0.08323152
31	0x3d4b1a8e	0.04958587
32	0xbd5db92a	-0.054131664
33	0x3dfed333	0.12442627
34	0x3dcfa8f9	0.10139651
35	0xbe122447	-0.14271651
36	0xbcddc43b	-0.027071109
37	0x3da988b1	0.08278025
38	0xbcf95d94	-0.03044013
39	0xbe378b35	-0.17924197
40	0x3de416a9	0.111371346
41	0x3d99e793	0.075148724
42	0xbd071ff3	-0.032989454
43	0x3e38a892	0.18033054
44	0xbdf00a7b	-0.11720749
45	0x3e057dc9	0.13036264
46	0x3b7c91b9	0.0038539006
47	0xbc867a27	-0.016415669
48	0x3d5020ff	0.050812718
49	0xbcd33086	-0.025779974
50	0xbe542c9f	-0.20720147
51	0xbda7db75	-0.08196155
52	0xbc8e23c6	-0.017351042
53	0xbdf62ebb	-0.12020632
54	0x3d59900f	0.0531159
55	0x3be16ab2	0.006879174
56	0xbdf69c51	-0.12041534
57	0xbac45bad	-0.0014980935
58	0xbda16a0d	-0.07881556
59	0xbc78910e	-0.0151713025
60	0x3e29fa0d	0.16599293
61	0xbd30e54c	-0.043187425
62	0x3daeb4fe	0.08530615
63	0x3e0ddae1	0.13853027
64	0x3d90b2d0	0.07065356
65	0xbded56c5	-0.115888156
66	0x3e09e4bd	0.13466163
67	0x3e067491	0.13130404
68	0xbd31e24e	-0.04342871
69	0xbcc11595	-0.023569861
70	0x3b9ccf7e	0.004785477
71	0xbde1b638	-0.110210836
72	0xbd77ea4a	-0.06052617
73	0xba909002	-0.0011029246
74	0xbdc129bb	-0.094317876
75	0xbd9a17b7	-0.075240545
76	0x3a1937ea	0.00058448187
77	0x3e1dd584	0.15413481
78	0x3df7d5fc	0.12101361
79	0xbcf432bc	-0.029809348
80	0x3e0b27bb	0.13589375
81	0xbd982383	-0.07428648
82	0x3dbf7633	0.093487166
83	0xbac1f810	-0.001479866
84	0xbd114c71	-0.03547329
85	0xbda42d26	-0.08016424
86	0x3d4b0a08	0.049570113
87	0xbc056481	-0.008141638
88	0x3d4047fe	0.046943657
89	0x3cc16570	0.02360794
90	0x3e03a977	0.12857614
91	0x3cd4bcdb	0.02596896
92	0xbca528a1	-0.020160975
93	0x3d443f90	0.04791218
94	0xbe0fbfcc	-0.14038008
95	0x3aa12afb	0.0012296134
96	0x3c733c1f	0.014845877
97	0x3db0e5d4	0.08637586
98	0xbdd35c33	-0.1032032
99	0xbcf1edeb	-0.029532393
100	0x3e36f2a2	0.17865995
101	0x3e2a0600	0.16603851
102	0xbc997cf0	-0.018736333
103	0xbb05219c	-0.0020314222
104	0x3d786557	0.06064352
105	0xbd27c7eb	-0.04096214
106	0x3cadef04	0.021232136
107	0xbdccafb1	-0.09994448
108	0x3e1d7dbf	0.1538
109	0x3cb57d50	0.02215448
110	0xbc815f0d	-0.015792394
111	0x3d6afd0c	0.05737023
112	0xbda8d0e2	-0.08242966
113	0xbd40a965	-0.047036547
114	0xbdeca217	-0.11554354
115	0xbd3a0f6c	-0.045424864
116	0xbc8362e6	-0.01603837
117	0xbdb0db5a	-0.08635588
118	0xbdbc0bd8	-0.091819465
119	0xbd770953	-0.060311627
120	0x3dab7b7d	0.08373163
121	0x3d413936	0.0471737
122	0x3e378d61	0.17925026
123	0x3b047251	0.002020974
124	0xbd4f44fa	-0.05060289
125	0x3cc20ef9	0.02368878
126	0xbd249320	-0.04017937
127	0x3d122b3f	0.035685774
128	0x3c1c7559	0.009549462
129	0x3d4daef5	0.05021568
130	0x3e176241	0.14783575
131	0xbdaa1a7e	-0.08305834
132	0xbd660c3e	-0.05616402
133	0x3d3c0ed7	0.04591259
134	0x3db6907d	0.08914278
135	0xbc72c542	-0.014817538
136	0xbe7e3aee	-0.24827167
137	0xbcd2b147	-0.025719298
138	0x3cf7ce11	0.030249627
139	0xbd668f9e	-0.056289308
140	0xbdbb784a	-0.09153803
141	0x3df584cf	0.11988222
142	0xbd8bfcfa	-0.06835361
143	0xbe283f02	-0.16430286
144	0xbdda38d9	-0.10655374
145	0xbe1eb0a3	-0.15497069
146	0xbc848304	-0.016175754
147	0x3b265dc2	0.0025385474
148	0x3d915c8a	0.070977286
149	0xbe2c7b25	-0.16843851
150	0x3ca9496e	0.020664897
151	0xbcec773e	-0.028865453
152	0xbd512867	-0.05106392
153	0xb98678a8	-0.00025648368
154	0x3ca96be8	0.020681337
155	0xba6786ff	-0.00088320667
156	0x3d947112	0.07248129
157	0xbd110209	-0.03540233
158	0x3e334ce0	0.17509794
159	0x3d845b17	0.064626865
160	0x3df80eda	0.12112208
161	0x3da9f043	0.082977794
162	0x3e76a01e	0.24084517
163	0xbd1816d1	-0.037131134
164	0xbc2264fa	-0.00991177
165	0xbddda259	-0.10821981
166	0x3dca8ea6	0.09890489
167	0xbd9cabab	-0.076499306
168	0x3d88427f	0.06653308
169	0x3d056957	0.032571163
170	0x3dcab160	0.09897113
171	0xbd0642b4	-0.032778457
172	0x3b8b1d75	0.004245455
173	0xbd1c53ad	-0.038165737
174	0x3c8ae72f	0.01695594
175	0x3cf7e0e4	0.030258603
176	0xbdfd6781	-0.123732574
177	0x3d67813e	0.05651974
178	0x3ca6f9d3	0.020382797
179	0x3bcacd2e	0.00618901
180	0xbdc4cb43	-0.096090816
181	0x3d046018	0.032318205
182	0x3d8aad00	0.067712784
183	0xbd7a298b	-0.061074775
184	0x3d94a90d	0.072588064
185	0xbdce6166	-0.10077171
186	0xbdca52c0	-0.098790646
187	0x3cba15cc	0.022715472
188	0xbda60f06	-0.08108334
189	0xbce26f01	-0.027640821
190	0xbdb70409	-0.089363165
191	0xbdb922a5	-0.09039811
192	0xbcb3e868	-0.021961406
193	0x3d720092	0.059082575
194	0x3dfe86ad	0.12428031
195	0x3df18489	0.11792857
196	0x3e0233b1	0.12715031
197	0xbe1555ed	-0.1458356
198	0xbdae93d2	-0.08524288
199	0x3d68e978	0.05686328
200	0x3d2a7006	0.04161074
201	0x3dcb7787	0.099349074
202	0xbca780a2	-0.02044708
203	0x3d0248c6	0.031807683
204	0x3d9c427c	0.076298684
205	0xbc9ece22	-0.019385401
206	0xbe1d370f	-0.15353034
207	0xbd3bad08	-0.045819312
208	0x3c7fa363	0.015602919
209	0x3d524001	0.05133057
210	0x3ceb89e7	0.02875228
211	0xbd49c184	-0.049256817
212	0x3dcdcb22	0.1004851
213	0x3dc6d0c8	0.097077906
214	0xbc5a0ef6	-0.013309231
215	0xbe634a18	-0.22196233
216	0xbd0cd502	-0.034382828
217	0x3e0258f6	0.12729248
218	0xbd7fc407	-0.062442806
219	0x3df309a7	0.118670754
220	0x3d96b9af	0.07359635
221	0x3decdb28	0.11565238
222	0x3e0da939	0.13834085
223	0xbe139e49	-0.1441585
224	0xbbd61710	-0.006533511
225	0x3e0885f8	0.13332355
226	0x3da3d814	0.08000198
227	0xbd12989a	-0.035790063
228	0xbd877d63	-0.066157125
229	0xbda5d3a5	-0.080970086
230	0xbda5b71d	-0.08091567
231	0xbd3f849a	-0.046757318
232	0x3c8a268c	0.016864084
233	0x3d623013	0.05522163
234	0x3c7b0fa3	0.015323552
235	0x3d0d670e	0.03452211
236	0x3d4203d9	0.04736695
237	0xbc927e88	-0.0178826
238	0x3e1f38c8	0.15549004
239	0x3e442106	0.19153222
240	0xbc8988a3	-0.016788786
241	0xbdce1d3f	-0.10064172
242	0x3e15b4d5	0.14619763
243	0xbd3aa214	-0.045564726
244	0x3e34d9ea	0.17661253
245	0xbcbd0a06	-0.023076069
246	0x3b07f98b	0.0020748104
247	0xbe31fadb	-0.1738085
248	0xbdf028ec	-0.11726555
249	0x3d3e318b	0.046433967
250	0x3e00651d	0.12538572
251	0xbd8e3479	-0.06943602
252	0xbd9ab2f6	-0.07553665
253	0xbc964962	-0.018345539
254	0x3d911012	0.07083143
255	0xbd065319	-0.03279409

network_body._body_endoder.seq_layers.2.bias f4 [128]
0	0xbc831e7f	-0.016005753
1	0xba2a1f3e	-0.0006489641
2	0xbc4f9661	-0.0126701305
3	0x3bceb7b5	0.0063085207
4	0x3ce3804f	0.027771143
5	0x3ce53f58	0.027984306
6	0xbbc6c259	-0.0060656485
7	0x3cb65ed5	0.022262016
8	0x3b84ead7	0.0040563154
9	0xbcb0f06e	-0.02159902
10	0xbb9aeb7b	-0.0047277785
11	0x396d31bd	0.0002262061
12	0x3a83dc5a	0.0010060177
13	0xbb7b4614	-0.003834133
14	0x3c03adae	0.008037014
15	0x3c722155	0.014778455
16	0x3bf6dab8	0.0075333975
17	0xbc709f81	-0.014686466
18	0xbba938dd	-0.0051642493
19	0xbc979929	-0.01850565
20	0x3c09ce0d	0.008410943
21	0x3cb2d2f2	0.021829102
22	0x3c426c7f	0.011866688
23	0x3c61080b	0.013734828
24	0xba61b3c4	-0.0008609856
25	0x3c9bb464	0.019006915
26	0xba87a976	-0.0010350186
27	0x3b0ef26b	0.0021811973
28	0x3cf6b051	0.030113371
29	0x3b055c2c	0.0020349128
30	0xbb25c57d	-0.0025294714
31	0x3c94a375	0.018144349
32	0x3c8409c9	0.016117947
33	0x3cbaf1dc	0.022820406
34	0x3b2b12d8	0.002610376
35	0x3cb0b80e	0.02157214
36	0xbb23fc23	-0.0025022111
37	0xbc96f44e	-0.01842704
38	0xbc21f1ad	-0.00988428
39	0xbc4a1af9	-0.012335532
40	0x3c9d64f9	0.019213187
41	0xbbf8933a	-0.00758591
42	0x3c646632	0.013940381
43	0xbc305dc3	-0.010764542
44	0x3b9c3c2d	0.0047679157
45	0xbb582f28	-0.0032987092
46	0x3c1f7786	0.009733086
47	0xb9e840c8	-0.00044298754
48	0x3b6cf886	0.0036158874
49	0xbc94416b	-0.0180976
50	0x3b731282	0.003708989
51	0x3c9be4d9	0.019030022
52	0x3cc444f8	0.023958668
53	0xbba99de6	-0.0051762937
54	0xbc3c429b	-0.011490489
55	0x3c897090	0.016777307
56	0x3cdd996b	0.027050694
57	0xbb87fc40	-0.0041499436
58	0x3c098301	0.00839305
59	0xbc9f9c95	-0.019483844
60	0x3c0395ed	0.008031351
61	0x3c7b4982	0.01533735
62	0xbc7972e6	-0.015225148
63	0x3c011c68	0.007880308
64	0x3cdbafd5	0.026817242
65	0x3c200519	0.00976684
66	0x3ce23ff3	0.027618384
67	0xbc9cfded	-0.01916405
68	0x3d00500d	0.031326342
69	0xbc93d55c	-0.018046074
70	0x3c3cc8e6	0.011522507
71	0x3b1e4bcc	0.0024154065
72	0xbc2eed63	-0.010676715
73	0xbb46c4ef	-0.0030329784
74	0x3cbd9bf8	0.02314566
75	0x3c97708e	0.018486287
76	0x3d0d66cc	0.034521863
77	0x3ca655cc	0.020304583
78	0x3b9eca50	0.004845895
79	0xbba37123	-0.004987852
80	0xbc773918	-0.015089296
81	0x3c9fbda7	0.019499613
82	0xbc44ce1c	-0.012012031
83	0xbc2a7614	-0.010404129
84	0x3a9810db	0.0011601703
85	0xbbbd9574	-0.0057856385
86	0x3c57133a	0.013127143
87	0x3b26ce41	0.0025452527
88	0xbbbde710	-0.005795367
89	0xbbc566aa	-0.0060242014
90	0xbc332111	-0.010933177
91	0xbc4d3b17	-0.012526295
92	0xbc976907	-0.018482698
93	0xbbfd34b4	-0.00772723
94	0x3d2f5cc1	0.042813066
95	0xbcb8034c	-0.02246251
96	0x3ce4e7b0	0.027942508
97	0x3c2c7b87	0.010527498
98	0x3c790f07	0.015201337
99	0x3ca7ee6f	0.020499436
100	0xbc89e481	-0.016832592
101	0x3c3a3d5a	0.011367166
102	0xbbe167b1	-0.006878816
103	0xbbb8f5cd	-0.005644536
104	0x3d0273b3	0.03184862
105	0x3ba368d0	0.00498686
106	0xbc67f633	-0.01415782
107	0xbc194ba6	-0.009356415
108	0x3c01a91f	0.007913857
109	0xbb7ee704	-0.003889502
110	0xbc4e8737	-0.01260548
111	0xbc0984ce	-0.0083934795
112	0x3c5e726e	0.013577087
113	0x3c95985c	0.018261127
114	0x3c95c203	0.018280989
115	0x3cec7c6f	0.028867928
116	0x3cb73f9a	0.022369195
117	0xbc985158	-0.018593475
118	0x3c081ded	0.008307916
119	0x3c65cfee	0.014026625
120	0xbc5b7463	-0.013394448
121	0x3c902124	0.017593928
122	0xbb98f3a4	-0.004667716
123	0x3bba9074	0.0056934897
124	0x3c7cca75	0.015429129
125	0xbbae7c06	-0.0053248433
126	0xbcae3166	-0.02126379
127	0xbc75e5a0	-0.01500836

action_model._continuous_distribution.log_sigma f4 [1, 2]
0	0xbdf9e196	-0.1220123
1	0xbde7d510	-0.11319935

action_model._continuous_distribution.mu.weight f4 [2, 128]
0	0x3b4417b3	0.0029921352
1	0x3bd5848c	0.006516045
2	0xbd276778	-0.04087016
3	0x3d1d645a	0.03842578
4	0xbc8884df	-0.01666492
5	0x3cf09af5	0.029370764
6	0x3b4fbfb1	0.003169995
7	0x3ae49180	0.0017438382
8	0x3c4f2995	0.012644191
9	0xbce4892d	-0.027897442
10	0xbc300e73	-0.010745632
11	0xbc153ffb	-0.009109492
12	0xbcd77d76	-0.026304942
13	0xbc49b271	-0.01231061
14	0x3c2c84e2	0.010529729
15	0xbd4e11a9	-0.05030981
16	0x3baf7a5c	0.0053551625
17	0xbce52eef	-0.027976481
18	0xbca8dc03	-0.020612722
19	0xbca99a33	-0.02070341
20	0x3c9ec748	0.019382134
21	0x3c84e967	0.016224576
22	0xbc9c6701	-0.019092085
23	0x3d015bee	0.03158181
24	0x39c11a0a	0.0003683123
25	0xbd467176	-0.04844805
26	0xbcc611a5	-0.024178335
27	0xbc3d90b1	-0.011570142
28	0xbabf1580	-0.0014578551
29	0xbc3be1c3	-0.0114674
30	0xbd60c25c	-0.054872856
31	0x3d3a0a0c	0.045419738
32	0x3cb4875e	0.022037204
33	0x3cb606c7	0.022220029
34	0xbbc3fefd	-0.0059813247
35	0x3cd47935	0.025936702
36	0xbb2cd037	-0.0026369223
37	0xbc357fcf	-0.011077835
38	0xbceaa340	-0.028642297
39	0xbac7cb1e	-0.0015243029
40	0xbd421ad9	-0.047388885
41	0xbd1c36ff	-0.038138386
42	0x3d38877a	0.045051076
43	0xbcde5b37	-0.027143104
44	0x3c971aeb	0.018445453
45	0xbd3e110f	-0.046402987
46	0x3cc762b4	0.024339058
47	0x3d0f2d89	0.034955535
48	0x3d212e67	0.039350893
49	0xbcc5d607	-0.024149908
50	0x3c91dc45	0.017805228
51	0x3c78ead8	0.01519271
52	0x3c4be943	0.012445751
53	0xbd1f4f02	-0.038893707
54	0xbb5fb6de	-0.0034136097
55	0x3cfde819	0.030994462
56	0x3ce88d25	0.028387615
57	0xbcb6fc92	-0.022337232
58	0xbc8b5219	-0.01700692
59	0xbc84f1db	-0.016228607
60	0x3cade2b4	0.021226265
61	0x3d349097	0.044083204
62	0x3a1338e4	0.00056160823
63	0x3b945683	0.0045269146
64	0xbc52d53e	-0.012868224
65	0xbcdae138	-0.02671872
66	0x3d256ea7	0.04038873
67	0xbc64de70	-0.013969049
68	0x3c859087	0.016304268
69	0xbc0236e2	-0.007947655
70	0x3c96664f	0.018359331
71	0xbd55dc92	-0.052212305
72	0xbc59ac71	-0.013285742
73	0xbc27afae	-0.010234756
74	0x3cc0e018	0.023544356
75	0xbd7499f0	-0.05971712
76	0x3d4aa528	0.04947391
77	0x3ce72128	0.028214052
78	0x3baba4e9	0.0052381647
79	0xbcb1a853	-0.021686709
80	0xbca29e6b	-0.01985093
81	0xbd9bf4fd	-0.07615087
82	0xbd558fbc	-0.05213903
83	0xbd385cac	-0.045010254
84	0xbd76d048	-0.060257226
85	0xbca64ecf	-0.02030125
86	0xbdafde70	-0.085873485
87	0x3ca7fcd5	0.020506302
88	0xbc45c1d7	-0.012070141
89	0xbca92b84	-0.020650633
90	0xbba672db	-0.00507961
91	0xbc541e1c	-0.012946632
92	0xbcc3f202	-0.02391911
93	0x3cab836c	0.02093669
94	0x3d8dbabe	0.06920384
95	0x3d3284b7	0.043583598
96	0xbd1c1c17	-0.038112726
97	0x3d39f2b7	0.045397487
98	0xbd1e5b4e	-0.038661294
99	0x3c5b0c8d	0.013369692
100	0xbd74d195	-0.059770186
101	0xbd120441	-0.035648588
102	0xbbe8a350	-0.0070995465
103	0x3c4d27f7	0.012521735
104	0x3ce19624	0.027537413
105	0x3a9d8a66	0.0012019395
106	0x3ab52b80	0.0013822168
107	0xbb8a59b0	-0.0042221174
108	0x3cd6a9c4	0.026203997
109	0xbdb4f878	-0.08836454
110	0xbd63abb1	-0.05558366
111	0xbd09ad6f	-0.033612665
112	0xbc1f5ead	-0.009727162
113	0x3ca2da9a	0.019879628
114	0xbcd89fd3	-0.026443398
115	0x3bb84976	0.0056239916
116	0x3cc7e6fa	0.02440213
117	0xbd093c36	-0.033504687
118	0x3c6d15e3	0.01447055
119	0xbc7e0eba	-0.015506441
120	0x3d7f4a79	0.062326882
121	0x3c7e2332	0.015511321
122	0xbc48052e	-0.012208266
123	0x3ce40d94	0.027838506
124	0x3d443e96	0.04791125
125	0x3c4e5e60	0.012595743
126	0xbd000e98	-0.031263918
127	0xbad7cfd2	-0.0016465134
128	0xbd3addb7	-0.0456216
129	0x3c0d6fe8	0.008632638
130	0x3d64f035	0.05589314
131	0xbd42db42	-0.04757238
132	0x3cccc974	0.024998404
133	0x3d457693	0.048208784
134	0x3be66a24	0.007031696
135	0x3cbe6dc0	0.023245692
136	0xbaf9cd48	-0.0019058371
137	0xbbb729c8	-0.0055896975
138	0x3cf1f06b	0.029533586
139	0x3b944b66	0.0045255898
140	0x3c74a6fb	0.014932389
141	0xbce7bd4d	-0.028288508
142	0xbc8bc398	-0.01706104
143	0xbd724f24	-0.059157506
144	0xbcc0fffe	-0.023559567
145	0x3c8e448e	0.017366674
146	0x3ce8203b	0.028335681
147	0xbce55bf3	-0.027997946
148	0xbca9dafa	-0.020734299
149	0xbc44fd4d	-0.012023282
150	0xbd4fdcb7	-0.0507476
151	0xbbc05697	-0.0058696973
152	0xbc87d12a	-0.01657923
153	0x3cf02321	0.029313626
154	0xbb5eb6d2	-0.003398348
155	0xbd2dae1a	-0.042402364
156	0xbd452709	-0.04813293
157	0x3d047350	0.032336533
158	0xbd1c08d9	-0.038094375
159	0xbc153111	-0.009105937
160	0xbd64a3b8	-0.055820197
161	0x3d9b53bd	0.07584331
162	0x3ce41cfc	0.027845852
163	0xbd074b04	-0.033030525
164	0x3cdbf5b8	0.026850566
165	0xbb512bed	-0.003191705
166	0xbc0bdf83	-0.008537176
167	0x3d1daa0a	0.03849224
168	0x3d2d9a55	0.04238351
169	0x3cfa2568	0.030535415
170	0xbbe686ff	-0.0070351358
171	0x3bbbafcd	0.005727744
172	0xbafb41cc	-0.0019169389
173	0x3d28bafa	0.04119394
174	0x3cec032a	0.028810102
175	0xbd448808	-0.047981292
176	0xbb90e768	-0.004422117
177	0xbd56d158	-0.05244574
178	0x3cd7d0a6	0.026344609
179	0x3d84413b	0.06457754
180	0xbd0bc075	-0.03411909
181	0xbd7a1cc6	-0.061062597
182	0xbc16fc3d	-0.009215412
183	0x38b9f3bf	8.866889e-05
184	0x3d0e92cf	0.034807976
185	0xbca015d5	-0.01954166
186	0xbce0e520	-0.027453005
187	0xbc3706cc	-0.011171054
188	0xbca03371	-0.01955578
189	0x3c49e2e5	0.012322162
190	0x3c846fb2	0.016166542
191	0xbd686cc0	-0.056744337
192	0x3d396484	0.045261875
193	0xbcca66e6	-0.024707269
194	0x3802d0fe	3.1189054e-05
195	0x3d2fed5f	0.042950984
196	0x3d35f36b	0.044421595
197	0x3b8b35e4	0.0042483676
198	0x3c0df73d	0.008664903
199	0xbc13229a	-0.008980418
200	0x3cb85f0b	0.022506258
201	0xbc73b0a0	-0.014873654
202	0x3be34571	0.0069357683
203	0x3c1e67e6	0.009668326
204	0xbc7003bd	-0.014649329
205	0xbc592231	-0.013252781
206	0xbcf439d6	-0.029812735
207	0x3c77186a	0.015081504
208	0xb9cb3b56	-0.00038763386
209	0x3b5a6f3e	0.0033330466
210	0x3cefa85f	0.02925509
211	0xbd81bf89	-0.063353606
212	0xbbc05de1	-0.0058705662
213	0x3c879119	0.01654868
214	0x3ca7065f	0.02038878
215	0xbaae74e7	-0.0013309986
216	0x3c91d624	0.017802306
217	0xbcb9a52e	-0.022661772
218	0x3d1097f8	0.03530118
219	0x3b7079bf	0.003669366
220	0x3c74ec9f	0.014948993
221	0xbc22b3c0	-0.009930551
222	0x3c1d72ee	0.009609921
223	0xbd0bb44e	-0.0341075
224	0x3d71f8b2	0.059075065
225	0x3c39ebe6	0.0113477465
226	0xbd176739	-0.036963675
227	0xbb1cac9b	-0.0023906592
228	0x3cd5c7bb	0.026096215
229	0x3d148ecd	0.036268998
230	0x3c137ec9	0.009002396
231	0x3d0f6f29	0.03501812
232	0xbd33098b	-0.043710273
233	0x3b91ab4e	0.00444547
234	0xbcafe8ca	-0.021473307
235	0x3c45b183	0.012066248
236	0x3d085f7e	0.033294193
237	0xbba6d7a0	-0.0050916225
238	0x3c5e61f3	0.013573158
239	0x3d36db31	0.04464263
240	0x3cd8ce54	0.026465572
241	0x3d244c93	0.04011209
242	0x3cccbbea	0.024991948
243	0xbd815735	-0.063154615
244	0x3d0c811a	0.03430281
245	0xbd57b9e8	-0.05266753
246	0x3c4679fd	0.012114045
247	0x3cf589f3	0.029973006
248	0xba5efc6a	-0.00085062406
249	0x3cc263ac	0.023729168
250	0x3c98de83	0.01866079
251	0x3bf21037	0.007387187
252	0xbbd25288	-0.00641853
253	0xbbefdc0d	-0.0073199333
254	0x3c50b89d	0.012739328
255	0xbc4041dd	-0.011734453

action_model._continuous_distribution.mu.bias f4 [2]
0	0x3c5afa01	0.01336527
1	0x3a9d6a3b	0.0012009809
